Testing CNN
2021-11-09
Input Shape:  (8000, 1, 150)
Model: "sequential"
_________________________________________________________________
Layer (type)                 Output Shape              Param #   
=================================================================
conv1d (Conv1D)              (None, 1, 64)             307264    
_________________________________________________________________
max_pooling1d (MaxPooling1D) (None, 1, 32)             0         
_________________________________________________________________
re_lu (ReLU)                 (None, 1, 32)             0         
_________________________________________________________________
conv1d_1 (Conv1D)            (None, 1, 64)             32832     
_________________________________________________________________
max_pooling1d_1 (MaxPooling1 (None, 1, 32)             0         
_________________________________________________________________
re_lu_1 (ReLU)               (None, 1, 32)             0         
_________________________________________________________________
conv1d_2 (Conv1D)            (None, 1, 64)             16448     
_________________________________________________________________
max_pooling1d_2 (MaxPooling1 (None, 1, 32)             0         
_________________________________________________________________
re_lu_2 (ReLU)               (None, 1, 32)             0         
_________________________________________________________________
dropout (Dropout)            (None, 1, 32)             0         
_________________________________________________________________
flatten (Flatten)            (None, 32)                0         
_________________________________________________________________
dense (Dense)                (None, 128)               4224      
_________________________________________________________________
dense_1 (Dense)              (None, 64)                8256      
_________________________________________________________________
dense_2 (Dense)              (None, 2)                 130       
=================================================================
Total params: 369,154
Trainable params: 369,154
Non-trainable params: 0
_________________________________________________________________
Epoch 00019: early stopping
Experiment:  1  Set:  ss1 Train Labels:  clean Test Labels:  clean
Shape of X_train:  (8000, 1, 150)
Shape of X_test:  (2000, 1, 150)
Shape of y_train:  (8000, 2)
…
