Testing CNN
2021-11-09
Input Shape:  (8000, 1, 150)
Model: "sequential"
_________________________________________________________________
Layer (type)                 Output Shape              Param #   
=================================================================
conv1d (Conv1D)              (None, 1, 128)            307328    
_________________________________________________________________
max_pooling1d (MaxPooling1D) (None, 1, 64)             0         
_________________________________________________________________
re_lu (ReLU)                 (None, 1, 64)             0         
_________________________________________________________________
conv1d_1 (Conv1D)            (None, 1, 64)             65600     
_________________________________________________________________
max_pooling1d_1 (MaxPooling1 (None, 1, 32)             0         
_________________________________________________________________
re_lu_1 (ReLU)               (None, 1, 32)             0         
_________________________________________________________________
conv1d_2 (Conv1D)            (None, 1, 64)             16448     
_________________________________________________________________
max_pooling1d_2 (MaxPooling1 (None, 1, 32)             0         
_________________________________________________________________
re_lu_2 (ReLU)               (None, 1, 32)             0         
_________________________________________________________________
dropout (Dropout)            (None, 1, 32)             0         
_________________________________________________________________
global_average_pooling1d (Gl (None, 32)                0         
_________________________________________________________________
dense (Dense)                (None, 2)                 66        
=================================================================
Total params: 389,442
Trainable params: 389,442
Non-trainable params: 0
_________________________________________________________________
Epoch 00017: early stopping
Experiment:  1  Set:  ss1 Train Labels:  clean Test Labels:  clean
Shape of X_train:  (8000, 1, 150)
Shape of X_test:  (2000, 1, 150)
Shape of y_train:  (8000, 2)
…
           0       0.72      0.75      0.73       811
           1       0.82      0.80      0.81      1189

    accuracy                           0.78      2000
   macro avg       0.77      0.77      0.77      2000
weighted avg       0.78      0.78      0.78      2000

Confusion Matrix for this model: 
 [[607 204]
 [236 953]]
Input Shape:  (24000, 1, 150)
Model: "sequential_7"
_________________________________________________________________
Layer (type)                 Output Shape              Param #   
=================================================================
conv1d_21 (Conv1D)           (None, 1, 128)            307328    
_________________________________________________________________
max_pooling1d_21 (MaxPooling (None, 1, 64)             0         
_________________________________________________________________
re_lu_21 (ReLU)              (None, 1, 64)             0         
_________________________________________________________________
conv1d_22 (Conv1D)           (None, 1, 64)             65600     
_________________________________________________________________
max_pooling1d_22 (MaxPooling (None, 1, 32)             0         
_________________________________________________________________
re_lu_22 (ReLU)              (None, 1, 32)             0         
_________________________________________________________________
conv1d_23 (Conv1D)           (None, 1, 64)             16448     
_________________________________________________________________
max_pooling1d_23 (MaxPooling (None, 1, 32)             0         
_________________________________________________________________
re_lu_23 (ReLU)              (None, 1, 32)             0         
_________________________________________________________________
dropout_7 (Dropout)          (None, 1, 32)             0         
_________________________________________________________________
global_average_pooling1d_7 ( (None, 32)                0         
_________________________________________________________________
dense_7 (Dense)              (None, 5)                 165       
=================================================================
Total params: 389,541
Trainable params: 389,541
Non-trainable params: 0
_________________________________________________________________
Epoch 00019: early stopping
Experiment:  50  Set:  ss2 Train Labels:  clean Test Labels:  clean
Shape of X_train:  (24000, 1, 150)
Shape of X_test:  (6000, 1, 150)
Shape of y_train:  (24000, 5)
…
    accuracy                           0.60      6000
   macro avg       0.62      0.64      0.60      6000
weighted avg       0.66      0.60      0.59      6000

Confusion Matrix for this model: 
 [[1048  129    3    0    0]
 [ 370  553  373  360  123]
 [  48   90  748  293   12]
 [   2    2   91  457  104]
 [   5    5   30  359  795]]
Input Shape:  (17020, 1, 1000)
Model: "sequential_14"
_________________________________________________________________
Layer (type)                 Output Shape              Param #   
=================================================================
conv1d_42 (Conv1D)           (None, 1, 128)            2048128   
_________________________________________________________________
max_pooling1d_42 (MaxPooling (None, 1, 64)             0         
_________________________________________________________________
re_lu_42 (ReLU)              (None, 1, 64)             0         
_________________________________________________________________
conv1d_43 (Conv1D)           (None, 1, 64)             65600     
_________________________________________________________________
max_pooling1d_43 (MaxPooling (None, 1, 32)             0         
_________________________________________________________________
re_lu_43 (ReLU)              (None, 1, 32)             0         
_________________________________________________________________
conv1d_44 (Conv1D)           (None, 1, 64)             16448     
_________________________________________________________________
max_pooling1d_44 (MaxPooling (None, 1, 32)             0         
_________________________________________________________________
re_lu_44 (ReLU)              (None, 1, 32)             0         
_________________________________________________________________
dropout_14 (Dropout)         (None, 1, 32)             0         
_________________________________________________________________
global_average_pooling1d_14  (None, 32)                0         
_________________________________________________________________
dense_14 (Dense)             (None, 2)                 66        
=================================================================
Total params: 2,130,242
Trainable params: 2,130,242
Non-trainable params: 0
_________________________________________________________________
Epoch 00016: early stopping
Experiment:  99  Set:  bs1 Train Labels:  clean Test Labels:  clean
Shape of X_train:  (17020, 1, 1000)
Shape of X_test:  (17243, 1, 1000)
Shape of y_train:  (17020, 2)
…
           0       0.53      0.55      0.54      8974
           1       0.49      0.47      0.48      8269

    accuracy                           0.51     17243
   macro avg       0.51      0.51      0.51     17243
weighted avg       0.51      0.51      0.51     17243

Confusion Matrix for this model: 
 [[4913 4061]
 [4362 3907]]
Input Shape:  (4757, 2, 1000)
Model: "sequential_21"
_________________________________________________________________
Layer (type)                 Output Shape              Param #   
=================================================================
conv1d_63 (Conv1D)           (None, 2, 128)            2048128   
_________________________________________________________________
max_pooling1d_63 (MaxPooling (None, 2, 64)             0         
_________________________________________________________________
re_lu_63 (ReLU)              (None, 2, 64)             0         
_________________________________________________________________
conv1d_64 (Conv1D)           (None, 2, 64)             65600     
_________________________________________________________________
max_pooling1d_64 (MaxPooling (None, 2, 32)             0         
_________________________________________________________________
re_lu_64 (ReLU)              (None, 2, 32)             0         
_________________________________________________________________
conv1d_65 (Conv1D)           (None, 2, 64)             16448     
_________________________________________________________________
max_pooling1d_65 (MaxPooling (None, 2, 32)             0         
_________________________________________________________________
re_lu_65 (ReLU)              (None, 2, 32)             0         
_________________________________________________________________
dropout_21 (Dropout)         (None, 2, 32)             0         
_________________________________________________________________
global_average_pooling1d_21  (None, 32)                0         
_________________________________________________________________
dense_21 (Dense)             (None, 2)                 66        
=================================================================
Total params: 2,130,242
Trainable params: 2,130,242
Non-trainable params: 0
_________________________________________________________________
Epoch 00023: early stopping
Experiment:  148  Set:  bs2 Train Labels:  clean Test Labels:  clean
Shape of X_train:  (4757, 2, 1000)
Shape of X_test:  (1472, 2, 1000)
Shape of y_train:  (4757, 2)
…
           0       0.56      0.16      0.25       815
           1       0.45      0.84      0.58       657

    accuracy                           0.46      1472
   macro avg       0.50      0.50      0.42      1472
weighted avg       0.51      0.46      0.40      1472

Confusion Matrix for this model: 
 [[132 683]
 [105 552]]
Input Shape:  (2077, 1, 96)
Model: "sequential_28"
_________________________________________________________________
Layer (type)                 Output Shape              Param #   
=================================================================
conv1d_84 (Conv1D)           (None, 1, 128)            196736    
_________________________________________________________________
max_pooling1d_84 (MaxPooling (None, 1, 64)             0         
_________________________________________________________________
re_lu_84 (ReLU)              (None, 1, 64)             0         
_________________________________________________________________
conv1d_85 (Conv1D)           (None, 1, 64)             65600     
_________________________________________________________________
max_pooling1d_85 (MaxPooling (None, 1, 32)             0         
_________________________________________________________________
re_lu_85 (ReLU)              (None, 1, 32)             0         
_________________________________________________________________
conv1d_86 (Conv1D)           (None, 1, 64)             16448     
_________________________________________________________________
max_pooling1d_86 (MaxPooling (None, 1, 32)             0         
_________________________________________________________________
re_lu_86 (ReLU)              (None, 1, 32)             0         
_________________________________________________________________
dropout_28 (Dropout)         (None, 1, 32)             0         
_________________________________________________________________
global_average_pooling1d_28  (None, 32)                0         
_________________________________________________________________
dense_28 (Dense)             (None, 6)                 198       
=================================================================
Total params: 278,982
Trainable params: 278,982
Non-trainable params: 0
_________________________________________________________________
Epoch 00022: early stopping
Experiment:  197  Set:  har1 Train Labels:  clean Test Labels:  clean
Shape of X_train:  (2077, 1, 96)
Shape of X_test:  (1091, 1, 96)
Shape of y_train:  (2077, 6)
…
    accuracy                           0.61      1091
   macro avg       0.62      0.59      0.59      1091
weighted avg       0.64      0.61      0.61      1091

Confusion Matrix for this model: 
 [[118   3   0   6  14  32]
 [  0  96  77   0   0   0]
 [ 36   0 145  23  34  43]
 [ 47   2  27 105   2   3]
 [ 35   0   0   5  29  19]
 [  8   0   4   4   2 172]]
Input Shape:  (7352, 3, 128)
Model: "sequential_35"
_________________________________________________________________
Layer (type)                 Output Shape              Param #   
=================================================================
conv1d_105 (Conv1D)          (None, 3, 128)            262272    
_________________________________________________________________
max_pooling1d_105 (MaxPoolin (None, 3, 64)             0         
_________________________________________________________________
re_lu_105 (ReLU)             (None, 3, 64)             0         
_________________________________________________________________
conv1d_106 (Conv1D)          (None, 3, 64)             65600     
_________________________________________________________________
max_pooling1d_106 (MaxPoolin (None, 3, 32)             0         
_________________________________________________________________
re_lu_106 (ReLU)             (None, 3, 32)             0         
_________________________________________________________________
conv1d_107 (Conv1D)          (None, 3, 64)             16448     
_________________________________________________________________
max_pooling1d_107 (MaxPoolin (None, 3, 32)             0         
_________________________________________________________________
re_lu_107 (ReLU)             (None, 3, 32)             0         
_________________________________________________________________
dropout_35 (Dropout)         (None, 3, 32)             0         
_________________________________________________________________
global_average_pooling1d_35  (None, 32)                0         
_________________________________________________________________
dense_35 (Dense)             (None, 6)                 198       
=================================================================
Total params: 344,518
Trainable params: 344,518
Non-trainable params: 0
_________________________________________________________________
Epoch 00053: early stopping
Experiment:  246  Set:  har2 Train Labels:  clean Test Labels:  clean
Shape of X_train:  (7352, 3, 128)
Shape of X_test:  (2947, 3, 128)
Shape of y_train:  (7352, 6)
…
