Testing CNN
2022-01-31
Input Shape:  (8000, 1, 150)
Model: "sequential"
_________________________________________________________________
 Layer (type)                Output Shape              Param #   
=================================================================
 batch_normalization (BatchN  (None, 1, 150)           600       
 ormalization)                                                   
                                                                 
 conv1d (Conv1D)             (None, 1, 128)            614528    
                                                                 
 conv1d_1 (Conv1D)           (None, 1, 128)            524416    
                                                                 
 max_pooling1d (MaxPooling1D  (None, 1, 32)            0         
 )                                                               
                                                                 
 conv1d_2 (Conv1D)           (None, 1, 64)             16448     
                                                                 
 conv1d_3 (Conv1D)           (None, 1, 64)             32832     
                                                                 
 max_pooling1d_1 (MaxPooling  (None, 1, 16)            0         
 1D)                                                             
                                                                 
 dropout (Dropout)           (None, 1, 16)             0         
                                                                 
 global_average_pooling1d (G  (None, 1)                0         
 lobalAveragePooling1D)                                          
                                                                 
 dense (Dense)               (None, 2)                 4         
                                                                 
=================================================================
Total params: 1,188,828
Trainable params: 1,188,528
Non-trainable params: 300
_________________________________________________________________
Size of X to fit:  (8000, 1, 150)
Epoch 00022: early stopping
Experiment:  1  Set:  ss1 Train Labels:  clean Test Labels:  clean
…
           0       0.78      0.87      0.82       957
           1       0.86      0.78      0.82      1043

    accuracy                           0.82      2000
   macro avg       0.82      0.82      0.82      2000
weighted avg       0.82      0.82      0.82      2000

Confusion Matrix for this model: 
 [[828 129]
 [231 812]]
Input Shape:  (24000, 1, 150)
Model: "sequential_7"
_________________________________________________________________
 Layer (type)                Output Shape              Param #   
=================================================================
 batch_normalization_7 (Batc  (None, 1, 150)           600       
 hNormalization)                                                 
                                                                 
 conv1d_28 (Conv1D)          (None, 1, 128)            614528    
                                                                 
 conv1d_29 (Conv1D)          (None, 1, 128)            524416    
                                                                 
 max_pooling1d_14 (MaxPoolin  (None, 1, 32)            0         
 g1D)                                                            
                                                                 
 conv1d_30 (Conv1D)          (None, 1, 64)             16448     
                                                                 
 conv1d_31 (Conv1D)          (None, 1, 64)             32832     
                                                                 
 max_pooling1d_15 (MaxPoolin  (None, 1, 16)            0         
 g1D)                                                            
                                                                 
 dropout_7 (Dropout)         (None, 1, 16)             0         
                                                                 
 global_average_pooling1d_7   (None, 1)                0         
 (GlobalAveragePooling1D)                                        
                                                                 
 dense_7 (Dense)             (None, 5)                 10        
                                                                 
=================================================================
Total params: 1,188,834
Trainable params: 1,188,534
Non-trainable params: 300
_________________________________________________________________
Size of X to fit:  (24000, 1, 150)
Epoch 00036: early stopping
Experiment:  50  Set:  ss2 Train Labels:  clean Test Labels:  clean
…
           4       0.49      0.86      0.62       760

    accuracy                           0.58      6000
   macro avg       0.47      0.61      0.53      6000
weighted avg       0.47      0.58      0.51      6000

Confusion Matrix for this model: 
 [[980 213   0   1   0]
 [184 917   0  70   8]
 [  3 474   0 738  84]
 [  1  68   0 905 594]
 [  5   3   0 100 652]]
Input Shape:  (2077, 1, 96)
Model: "sequential_14"
_________________________________________________________________
 Layer (type)                Output Shape              Param #   
=================================================================
 batch_normalization_14 (Bat  (None, 1, 96)            384       
 chNormalization)                                                
                                                                 
 conv1d_56 (Conv1D)          (None, 1, 128)            393344    
                                                                 
 conv1d_57 (Conv1D)          (None, 1, 128)            524416    
                                                                 
 max_pooling1d_28 (MaxPoolin  (None, 1, 32)            0         
 g1D)                                                            
                                                                 
 conv1d_58 (Conv1D)          (None, 1, 64)             16448     
                                                                 
 conv1d_59 (Conv1D)          (None, 1, 64)             32832     
                                                                 
 max_pooling1d_29 (MaxPoolin  (None, 1, 16)            0         
 g1D)                                                            
                                                                 
 dropout_14 (Dropout)        (None, 1, 16)             0         
                                                                 
 global_average_pooling1d_14  (None, 1)                0         
  (GlobalAveragePooling1D)                                       
                                                                 
 dense_14 (Dense)            (None, 6)                 12        
                                                                 
=================================================================
Total params: 967,436
Trainable params: 967,244
Non-trainable params: 192
_________________________________________________________________
Size of X to fit:  (2077, 1, 96)
Epoch 00105: early stopping
Experiment:  99  Set:  har1 Train Labels:  clean Test Labels:  clean
…
    accuracy                           0.41      1091
   macro avg       0.33      0.36      0.28      1091
weighted avg       0.37      0.41      0.33      1091

Confusion Matrix for this model: 
 [[132   0   6   1   0  34]
 [  0   0 173   0   0   0]
 [ 79   0 165   2   0  35]
 [ 25   0 117  16   0  28]
 [ 52   0   0   1   0  35]
 [ 47   0   5   2   0 136]]
Input Shape:  (7352, 3, 128)
Model: "sequential_21"
_________________________________________________________________
 Layer (type)                Output Shape              Param #   
=================================================================
 batch_normalization_21 (Bat  (None, 3, 128)           512       
 chNormalization)                                                
                                                                 
 conv1d_84 (Conv1D)          (None, 3, 128)            524416    
                                                                 
 conv1d_85 (Conv1D)          (None, 3, 128)            524416    
                                                                 
 max_pooling1d_42 (MaxPoolin  (None, 3, 32)            0         
 g1D)                                                            
                                                                 
 conv1d_86 (Conv1D)          (None, 3, 64)             16448     
                                                                 
 conv1d_87 (Conv1D)          (None, 3, 64)             32832     
                                                                 
 max_pooling1d_43 (MaxPoolin  (None, 3, 16)            0         
 g1D)                                                            
                                                                 
 dropout_21 (Dropout)        (None, 3, 16)             0         
                                                                 
 global_average_pooling1d_21  (None, 3)                0         
  (GlobalAveragePooling1D)                                       
                                                                 
 dense_21 (Dense)            (None, 6)                 24        
                                                                 
=================================================================
Total params: 1,098,648
Trainable params: 1,098,392
Non-trainable params: 256
_________________________________________________________________
Size of X to fit:  (7352, 3, 128)
Epoch 00072: early stopping
Experiment:  148  Set:  har2 Train Labels:  clean Test Labels:  clean
…
    accuracy                           0.78      2947
   macro avg       0.76      0.76      0.75      2947
weighted avg       0.79      0.78      0.78      2947

Confusion Matrix for this model: 
 [[463  16  16   0   1   0]
 [104 361   6   0   0   0]
 [  6  31 508   6   9 155]
 [  0   0   0 345 145   1]
 [  0   0   0  48 484   0]
 [  3   5  97   3   5 129]]
Input Shape:  (113739, 6, 30)
Model: "sequential_28"
_________________________________________________________________
 Layer (type)                Output Shape              Param #   
=================================================================
 batch_normalization_28 (Bat  (None, 6, 30)            120       
 chNormalization)                                                
                                                                 
 conv1d_112 (Conv1D)         (None, 6, 64)             15424     
                                                                 
 conv1d_113 (Conv1D)         (None, 6, 64)             32832     
                                                                 
 max_pooling1d_56 (MaxPoolin  (None, 6, 16)            0         
 g1D)                                                            
                                                                 
 conv1d_114 (Conv1D)         (None, 6, 64)             4160      
                                                                 
 conv1d_115 (Conv1D)         (None, 6, 64)             16448     
                                                                 
 max_pooling1d_57 (MaxPoolin  (None, 6, 16)            0         
 g1D)                                                            
                                                                 
 dropout_28 (Dropout)        (None, 6, 16)             0         
                                                                 
 global_average_pooling1d_28  (None, 6)                0         
  (GlobalAveragePooling1D)                                       
                                                                 
 dense_28 (Dense)            (None, 2)                 14        
                                                                 
=================================================================
Total params: 68,998
Trainable params: 68,938
Non-trainable params: 60
_________________________________________________________________
Size of X to fit:  (113739, 6, 30)
Epoch 00020: early stopping
Experiment:  197  Set:  sn1 Train Labels:  clean Test Labels:  clean
…
           0       0.70      0.82      0.76     20149
           1       0.45      0.29      0.36     10102

    accuracy                           0.65     30251
   macro avg       0.58      0.56      0.56     30251
weighted avg       0.62      0.65      0.62     30251

Confusion Matrix for this model: 
 [[16598  3551]
 [ 7146  2956]]
Input Shape:  (8112, 5, 30)
Model: "sequential_35"
_________________________________________________________________
 Layer (type)                Output Shape              Param #   
=================================================================
 batch_normalization_35 (Bat  (None, 5, 30)            120       
 chNormalization)                                                
                                                                 
 conv1d_140 (Conv1D)         (None, 5, 64)             15424     
                                                                 
 conv1d_141 (Conv1D)         (None, 5, 64)             32832     
                                                                 
 max_pooling1d_70 (MaxPoolin  (None, 5, 16)            0         
 g1D)                                                            
                                                                 
 conv1d_142 (Conv1D)         (None, 5, 64)             4160      
                                                                 
 conv1d_143 (Conv1D)         (None, 5, 64)             16448     
                                                                 
 max_pooling1d_71 (MaxPoolin  (None, 5, 16)            0         
 g1D)                                                            
                                                                 
 dropout_35 (Dropout)        (None, 5, 16)             0         
                                                                 
 global_average_pooling1d_35  (None, 5)                0         
  (GlobalAveragePooling1D)                                       
                                                                 
 dense_35 (Dense)            (None, 5)                 30        
                                                                 
=================================================================
Total params: 69,014
Trainable params: 68,954
Non-trainable params: 60
_________________________________________________________________
Size of X to fit:  (8112, 5, 30)
Epoch 00128: early stopping
Experiment:  246  Set:  sn2 Train Labels:  clean Test Labels:  clean
…
