Testing CNN
2022-02-01
Input Shape:  (8000, 1, 150)
Model: "sequential"
_________________________________________________________________
 Layer (type)                Output Shape              Param #   
=================================================================
 batch_normalization (BatchN  (None, 1, 150)           600       
 ormalization)                                                   
                                                                 
 conv1d (Conv1D)             (None, 1, 128)            614528    
                                                                 
 conv1d_1 (Conv1D)           (None, 1, 128)            524416    
                                                                 
 max_pooling1d (MaxPooling1D  (None, 1, 32)            0         
 )                                                               
                                                                 
 conv1d_2 (Conv1D)           (None, 1, 64)             16448     
                                                                 
 conv1d_3 (Conv1D)           (None, 1, 64)             32832     
                                                                 
 max_pooling1d_1 (MaxPooling  (None, 1, 16)            0         
 1D)                                                             
                                                                 
 dropout (Dropout)           (None, 1, 16)             0         
                                                                 
 global_average_pooling1d (G  (None, 1)                0         
 lobalAveragePooling1D)                                          
                                                                 
 dense (Dense)               (None, 2)                 4         
                                                                 
=================================================================
Total params: 1,188,828
Trainable params: 1,188,528
Non-trainable params: 300
_________________________________________________________________
Size of X to fit:  (8000, 1, 150)
Epoch 00022: early stopping
Experiment:  1  Set:  ss1 Train Labels:  clean Test Labels:  clean
…
           0       0.74      0.84      0.79       957
           1       0.84      0.73      0.78      1043

    accuracy                           0.79      2000
   macro avg       0.79      0.79      0.79      2000
weighted avg       0.79      0.79      0.79      2000

Confusion Matrix for this model: 
 [[808 149]
 [278 765]]
Input Shape:  (24000, 1, 150)
Model: "sequential_7"
_________________________________________________________________
 Layer (type)                Output Shape              Param #   
=================================================================
 batch_normalization_7 (Batc  (None, 1, 150)           600       
 hNormalization)                                                 
                                                                 
 conv1d_28 (Conv1D)          (None, 1, 128)            614528    
                                                                 
 conv1d_29 (Conv1D)          (None, 1, 128)            524416    
                                                                 
 max_pooling1d_14 (MaxPoolin  (None, 1, 32)            0         
 g1D)                                                            
                                                                 
 conv1d_30 (Conv1D)          (None, 1, 64)             16448     
                                                                 
 conv1d_31 (Conv1D)          (None, 1, 64)             32832     
                                                                 
 max_pooling1d_15 (MaxPoolin  (None, 1, 16)            0         
 g1D)                                                            
                                                                 
 dropout_7 (Dropout)         (None, 1, 16)             0         
                                                                 
 global_average_pooling1d_7   (None, 1)                0         
 (GlobalAveragePooling1D)                                        
                                                                 
 dense_7 (Dense)             (None, 5)                 10        
                                                                 
=================================================================
Total params: 1,188,834
Trainable params: 1,188,534
Non-trainable params: 300
_________________________________________________________________
Size of X to fit:  (24000, 1, 150)
Epoch 00058: early stopping
Experiment:  50  Set:  ss2 Train Labels:  clean Test Labels:  clean
…
    accuracy                           0.59      6000
   macro avg       0.48      0.61      0.53      6000
weighted avg       0.47      0.59      0.52      6000

Confusion Matrix for this model: 
 [[1007  186    0    1    0]
 [ 200  914    0   58    7]
 [   4  516    0  719   60]
 [   1   62    0 1033  472]
 [   4    3    0  175  578]]
Input Shape:  (2077, 1, 96)
Model: "sequential_14"
_________________________________________________________________
 Layer (type)                Output Shape              Param #   
=================================================================
 batch_normalization_14 (Bat  (None, 1, 96)            384       
 chNormalization)                                                
                                                                 
 conv1d_56 (Conv1D)          (None, 1, 128)            393344    
                                                                 
 conv1d_57 (Conv1D)          (None, 1, 128)            524416    
                                                                 
 max_pooling1d_28 (MaxPoolin  (None, 1, 32)            0         
 g1D)                                                            
                                                                 
 conv1d_58 (Conv1D)          (None, 1, 64)             16448     
                                                                 
 conv1d_59 (Conv1D)          (None, 1, 64)             32832     
                                                                 
 max_pooling1d_29 (MaxPoolin  (None, 1, 16)            0         
 g1D)                                                            
                                                                 
 dropout_14 (Dropout)        (None, 1, 16)             0         
                                                                 
 global_average_pooling1d_14  (None, 1)                0         
  (GlobalAveragePooling1D)                                       
                                                                 
 dense_14 (Dense)            (None, 6)                 12        
                                                                 
=================================================================
Total params: 967,436
Trainable params: 967,244
Non-trainable params: 192
_________________________________________________________________
Size of X to fit:  (2077, 1, 96)
Epoch 00054: early stopping
Experiment:  99  Set:  har1 Train Labels:  clean Test Labels:  clean
…
    accuracy                           0.31      1091
   macro avg       0.22      0.32      0.18      1091
weighted avg       0.25      0.31      0.18      1091

Confusion Matrix for this model: 
 [[140  15  13   3   0   2]
 [  0 173   0   0   0   0]
 [115 126  16   7   0  17]
 [143  12  13   6   0  12]
 [ 81   3   1   2   0   1]
 [  7 178   3   1   0   1]]
Input Shape:  (7352, 3, 128)
Model: "sequential_21"
_________________________________________________________________
 Layer (type)                Output Shape              Param #   
=================================================================
 batch_normalization_21 (Bat  (None, 3, 128)           512       
 chNormalization)                                                
                                                                 
 conv1d_84 (Conv1D)          (None, 3, 128)            524416    
                                                                 
 conv1d_85 (Conv1D)          (None, 3, 128)            524416    
                                                                 
 max_pooling1d_42 (MaxPoolin  (None, 3, 32)            0         
 g1D)                                                            
                                                                 
 conv1d_86 (Conv1D)          (None, 3, 64)             16448     
                                                                 
 conv1d_87 (Conv1D)          (None, 3, 64)             32832     
                                                                 
 max_pooling1d_43 (MaxPoolin  (None, 3, 16)            0         
 g1D)                                                            
                                                                 
 dropout_21 (Dropout)        (None, 3, 16)             0         
                                                                 
 global_average_pooling1d_21  (None, 3)                0         
  (GlobalAveragePooling1D)                                       
                                                                 
 dense_21 (Dense)            (None, 6)                 24        
                                                                 
=================================================================
Total params: 1,098,648
Trainable params: 1,098,392
Non-trainable params: 256
_________________________________________________________________
Size of X to fit:  (7352, 3, 128)
Epoch 00097: early stopping
Experiment:  148  Set:  har2 Train Labels:  clean Test Labels:  clean
…
    accuracy                           0.78      2947
   macro avg       0.75      0.74      0.74      2947
weighted avg       0.79      0.78      0.78      2947

Confusion Matrix for this model: 
 [[432  31   1   0   0  32]
 [ 53 387  31   0   0   0]
 [  2  17 572  13   0 111]
 [  1   0   0 329 161   0]
 [  0   0   0  34 498   0]
 [  0   0 154   4   0  84]]
Input Shape:  (113739, 6, 30)
Model: "sequential_28"
_________________________________________________________________
 Layer (type)                Output Shape              Param #   
=================================================================
 batch_normalization_28 (Bat  (None, 6, 30)            120       
 chNormalization)                                                
                                                                 
 conv1d_112 (Conv1D)         (None, 6, 64)             15424     
                                                                 
 conv1d_113 (Conv1D)         (None, 6, 64)             32832     
                                                                 
 max_pooling1d_56 (MaxPoolin  (None, 6, 16)            0         
 g1D)                                                            
                                                                 
 conv1d_114 (Conv1D)         (None, 6, 64)             4160      
                                                                 
 conv1d_115 (Conv1D)         (None, 6, 64)             16448     
                                                                 
 max_pooling1d_57 (MaxPoolin  (None, 6, 16)            0         
 g1D)                                                            
                                                                 
 dropout_28 (Dropout)        (None, 6, 16)             0         
                                                                 
 global_average_pooling1d_28  (None, 6)                0         
  (GlobalAveragePooling1D)                                       
                                                                 
 dense_28 (Dense)            (None, 2)                 14        
                                                                 
=================================================================
Total params: 68,998
Trainable params: 68,938
Non-trainable params: 60
_________________________________________________________________
Size of X to fit:  (113739, 6, 30)
Epoch 00020: early stopping
Experiment:  197  Set:  sn1 Train Labels:  clean Test Labels:  clean
…
           0       0.70      0.84      0.76     20149
           1       0.46      0.27      0.34     10102

    accuracy                           0.65     30251
   macro avg       0.58      0.56      0.55     30251
weighted avg       0.62      0.65      0.62     30251

Confusion Matrix for this model: 
 [[16918  3231]
 [ 7348  2754]]
Input Shape:  (8112, 5, 30)
Model: "sequential_35"
_________________________________________________________________
 Layer (type)                Output Shape              Param #   
=================================================================
 batch_normalization_35 (Bat  (None, 5, 30)            120       
 chNormalization)                                                
                                                                 
 conv1d_140 (Conv1D)         (None, 5, 64)             15424     
                                                                 
 conv1d_141 (Conv1D)         (None, 5, 64)             32832     
                                                                 
 max_pooling1d_70 (MaxPoolin  (None, 5, 16)            0         
 g1D)                                                            
                                                                 
 conv1d_142 (Conv1D)         (None, 5, 64)             4160      
                                                                 
 conv1d_143 (Conv1D)         (None, 5, 64)             16448     
                                                                 
 max_pooling1d_71 (MaxPoolin  (None, 5, 16)            0         
 g1D)                                                            
                                                                 
 dropout_35 (Dropout)        (None, 5, 16)             0         
                                                                 
 global_average_pooling1d_35  (None, 5)                0         
  (GlobalAveragePooling1D)                                       
                                                                 
 dense_35 (Dense)            (None, 5)                 30        
                                                                 
=================================================================
Total params: 69,014
Trainable params: 68,954
Non-trainable params: 60
_________________________________________________________________
Size of X to fit:  (8112, 5, 30)
Epoch 00139: early stopping
Experiment:  246  Set:  sn2 Train Labels:  clean Test Labels:  clean
…
