Testing CNN
2022-01-29
Input Shape:  (8000, 1, 150)
Model: "sequential"
_________________________________________________________________
Layer (type)                 Output Shape              Param #   
=================================================================
conv1d (Conv1D)              (None, 1, 128)            307328    
_________________________________________________________________
max_pooling1d (MaxPooling1D) (None, 1, 64)             0         
_________________________________________________________________
re_lu (ReLU)                 (None, 1, 64)             0         
_________________________________________________________________
conv1d_1 (Conv1D)            (None, 1, 64)             65600     
_________________________________________________________________
max_pooling1d_1 (MaxPooling1 (None, 1, 32)             0         
_________________________________________________________________
re_lu_1 (ReLU)               (None, 1, 32)             0         
_________________________________________________________________
conv1d_2 (Conv1D)            (None, 1, 64)             16448     
_________________________________________________________________
max_pooling1d_2 (MaxPooling1 (None, 1, 32)             0         
_________________________________________________________________
re_lu_2 (ReLU)               (None, 1, 32)             0         
_________________________________________________________________
dropout (Dropout)            (None, 1, 32)             0         
_________________________________________________________________
global_average_pooling1d (Gl (None, 32)                0         
_________________________________________________________________
dense (Dense)                (None, 2)                 66        
=================================================================
Total params: 389,442
Trainable params: 389,442
Non-trainable params: 0
_________________________________________________________________
Epoch 00017: early stopping
Experiment:  1  Set:  ss1 Train Labels:  clean Test Labels:  clean
Shape of X_train:  (8000, 1, 150)
Shape of X_test:  (2000, 1, 150)
Shape of y_train:  (8000, 2)
…
           0       0.79      0.87      0.83       957
           1       0.87      0.79      0.83      1043

    accuracy                           0.83      2000
   macro avg       0.83      0.83      0.83      2000
weighted avg       0.83      0.83      0.83      2000

Confusion Matrix for this model: 
 [[829 128]
 [216 827]]
Input Shape:  (24000, 1, 150)
Model: "sequential_7"
_________________________________________________________________
Layer (type)                 Output Shape              Param #   
=================================================================
conv1d_21 (Conv1D)           (None, 1, 128)            307328    
_________________________________________________________________
max_pooling1d_21 (MaxPooling (None, 1, 64)             0         
_________________________________________________________________
re_lu_21 (ReLU)              (None, 1, 64)             0         
_________________________________________________________________
conv1d_22 (Conv1D)           (None, 1, 64)             65600     
_________________________________________________________________
max_pooling1d_22 (MaxPooling (None, 1, 32)             0         
_________________________________________________________________
re_lu_22 (ReLU)              (None, 1, 32)             0         
_________________________________________________________________
conv1d_23 (Conv1D)           (None, 1, 64)             16448     
_________________________________________________________________
max_pooling1d_23 (MaxPooling (None, 1, 32)             0         
_________________________________________________________________
re_lu_23 (ReLU)              (None, 1, 32)             0         
_________________________________________________________________
dropout_7 (Dropout)          (None, 1, 32)             0         
_________________________________________________________________
global_average_pooling1d_7 ( (None, 32)                0         
_________________________________________________________________
dense_7 (Dense)              (None, 5)                 165       
=================================================================
Total params: 389,541
Trainable params: 389,541
Non-trainable params: 0
_________________________________________________________________
Epoch 00020: early stopping
Experiment:  50  Set:  ss2 Train Labels:  clean Test Labels:  clean
Shape of X_train:  (24000, 1, 150)
Shape of X_test:  (6000, 1, 150)
Shape of y_train:  (24000, 5)
…
           4       0.46      0.87      0.61       760

    accuracy                           0.59      6000
   macro avg       0.61      0.62      0.58      6000
weighted avg       0.61      0.59      0.58      6000

Confusion Matrix for this model: 
 [[920 269   1   0   4]
 [176 785 144  60  14]
 [  4 281 338 580  96]
 [  1  31  51 835 650]
 [  4   1   3  89 663]]
Input Shape:  (2077, 1, 96)
Model: "sequential_14"
_________________________________________________________________
Layer (type)                 Output Shape              Param #   
=================================================================
conv1d_42 (Conv1D)           (None, 1, 128)            196736    
_________________________________________________________________
max_pooling1d_42 (MaxPooling (None, 1, 64)             0         
_________________________________________________________________
re_lu_42 (ReLU)              (None, 1, 64)             0         
_________________________________________________________________
conv1d_43 (Conv1D)           (None, 1, 64)             65600     
_________________________________________________________________
max_pooling1d_43 (MaxPooling (None, 1, 32)             0         
_________________________________________________________________
re_lu_43 (ReLU)              (None, 1, 32)             0         
_________________________________________________________________
conv1d_44 (Conv1D)           (None, 1, 64)             16448     
_________________________________________________________________
max_pooling1d_44 (MaxPooling (None, 1, 32)             0         
_________________________________________________________________
re_lu_44 (ReLU)              (None, 1, 32)             0         
_________________________________________________________________
dropout_14 (Dropout)         (None, 1, 32)             0         
_________________________________________________________________
global_average_pooling1d_14  (None, 32)                0         
_________________________________________________________________
dense_14 (Dense)             (None, 6)                 198       
=================================================================
Total params: 278,982
Trainable params: 278,982
Non-trainable params: 0
_________________________________________________________________
Epoch 00022: early stopping
Experiment:  99  Set:  har1 Train Labels:  clean Test Labels:  clean
Shape of X_train:  (2077, 1, 96)
Shape of X_test:  (1091, 1, 96)
Shape of y_train:  (2077, 6)
…
    accuracy                           0.60      1091
   macro avg       0.59      0.56      0.54      1091
weighted avg       0.63      0.60      0.59      1091

Confusion Matrix for this model: 
 [[138   3   0   5   5  22]
 [  0  88  81   0   0   4]
 [ 88   0 142  30   0  21]
 [ 49   3  15 116   1   2]
 [ 75   0   0   1   1  11]
 [ 10   0   2   6   0 172]]
Input Shape:  (7352, 3, 128)
Model: "sequential_21"
_________________________________________________________________
Layer (type)                 Output Shape              Param #   
=================================================================
conv1d_63 (Conv1D)           (None, 3, 128)            262272    
_________________________________________________________________
max_pooling1d_63 (MaxPooling (None, 3, 64)             0         
_________________________________________________________________
re_lu_63 (ReLU)              (None, 3, 64)             0         
_________________________________________________________________
conv1d_64 (Conv1D)           (None, 3, 64)             65600     
_________________________________________________________________
max_pooling1d_64 (MaxPooling (None, 3, 32)             0         
_________________________________________________________________
re_lu_64 (ReLU)              (None, 3, 32)             0         
_________________________________________________________________
conv1d_65 (Conv1D)           (None, 3, 64)             16448     
_________________________________________________________________
max_pooling1d_65 (MaxPooling (None, 3, 32)             0         
_________________________________________________________________
re_lu_65 (ReLU)              (None, 3, 32)             0         
_________________________________________________________________
dropout_21 (Dropout)         (None, 3, 32)             0         
_________________________________________________________________
global_average_pooling1d_21  (None, 32)                0         
_________________________________________________________________
dense_21 (Dense)             (None, 6)                 198       
=================================================================
Total params: 344,518
Trainable params: 344,518
Non-trainable params: 0
_________________________________________________________________
Epoch 00049: early stopping
Experiment:  148  Set:  har2 Train Labels:  clean Test Labels:  clean
Shape of X_train:  (7352, 3, 128)
Shape of X_test:  (2947, 3, 128)
Shape of y_train:  (7352, 6)
…
    accuracy                           0.76      2947
   macro avg       0.75      0.76      0.75      2947
weighted avg       0.78      0.76      0.76      2947

Confusion Matrix for this model: 
 [[405  36  55   0   0   0]
 [ 38 385  30   0  18   0]
 [  5  32 467   9   1 201]
 [  1   2   1 344 142   1]
 [  1   0   0  79 452   0]
 [  0   0  53  10   0 179]]
Input Shape:  (113739, 6, 30)
Model: "sequential_28"
_________________________________________________________________
Layer (type)                 Output Shape              Param #   
=================================================================
conv1d_84 (Conv1D)           (None, 6, 128)            61568     
_________________________________________________________________
max_pooling1d_84 (MaxPooling (None, 6, 64)             0         
_________________________________________________________________
re_lu_84 (ReLU)              (None, 6, 64)             0         
_________________________________________________________________
conv1d_85 (Conv1D)           (None, 6, 64)             65600     
_________________________________________________________________
max_pooling1d_85 (MaxPooling (None, 6, 32)             0         
_________________________________________________________________
re_lu_85 (ReLU)              (None, 6, 32)             0         
_________________________________________________________________
conv1d_86 (Conv1D)           (None, 6, 64)             16448     
_________________________________________________________________
max_pooling1d_86 (MaxPooling (None, 6, 32)             0         
_________________________________________________________________
re_lu_86 (ReLU)              (None, 6, 32)             0         
_________________________________________________________________
dropout_28 (Dropout)         (None, 6, 32)             0         
_________________________________________________________________
global_average_pooling1d_28  (None, 32)                0         
_________________________________________________________________
dense_28 (Dense)             (None, 2)                 66        
=================================================================
Total params: 143,682
Trainable params: 143,682
Non-trainable params: 0
_________________________________________________________________
Epoch 00020: early stopping
Experiment:  197  Set:  sn1 Train Labels:  clean Test Labels:  clean
Shape of X_train:  (113739, 6, 30)
Shape of X_test:  (30251, 6, 30)
Shape of y_train:  (113739, 2)
…
           0       0.71      0.81      0.75     20149
           1       0.46      0.33      0.39     10102

    accuracy                           0.65     30251
   macro avg       0.58      0.57      0.57     30251
weighted avg       0.62      0.65      0.63     30251

Confusion Matrix for this model: 
 [[16245  3904]
 [ 6747  3355]]
Input Shape:  (8112, 5, 30)
Model: "sequential_35"
_________________________________________________________________
Layer (type)                 Output Shape              Param #   
=================================================================
conv1d_105 (Conv1D)          (None, 5, 128)            61568     
_________________________________________________________________
max_pooling1d_105 (MaxPoolin (None, 5, 64)             0         
_________________________________________________________________
re_lu_105 (ReLU)             (None, 5, 64)             0         
_________________________________________________________________
conv1d_106 (Conv1D)          (None, 5, 64)             65600     
_________________________________________________________________
max_pooling1d_106 (MaxPoolin (None, 5, 32)             0         
_________________________________________________________________
re_lu_106 (ReLU)             (None, 5, 32)             0         
_________________________________________________________________
conv1d_107 (Conv1D)          (None, 5, 64)             16448     
_________________________________________________________________
max_pooling1d_107 (MaxPoolin (None, 5, 32)             0         
_________________________________________________________________
re_lu_107 (ReLU)             (None, 5, 32)             0         
_________________________________________________________________
dropout_35 (Dropout)         (None, 5, 32)             0         
_________________________________________________________________
global_average_pooling1d_35  (None, 32)                0         
_________________________________________________________________
dense_35 (Dense)             (None, 5)                 165       
=================================================================
Total params: 143,781
Trainable params: 143,781
Non-trainable params: 0
_________________________________________________________________
Epoch 00124: early stopping
Experiment:  246  Set:  sn2 Train Labels:  clean Test Labels:  clean
Shape of X_train:  (8112, 5, 30)
Shape of X_test:  (2634, 5, 30)
Shape of y_train:  (8112, 5)
…
