Testing LSTM
2021-09-04
Input Shape:  (8000, 1, 150)
Model: "sequential"
_________________________________________________________________
Layer (type)                 Output Shape              Param #   
=================================================================
lstm (LSTM)                  (None, 32)                23424     
_________________________________________________________________
dropout (Dropout)            (None, 32)                0         
_________________________________________________________________
dense (Dense)                (None, 128)               4224      
_________________________________________________________________
dense_1 (Dense)              (None, 128)               16512     
_________________________________________________________________
dense_2 (Dense)              (None, 64)                8256      
_________________________________________________________________
dense_3 (Dense)              (None, 2)                 130       
=================================================================
Total params: 52,546
Trainable params: 52,546
Non-trainable params: 0
_________________________________________________________________
Epoch 1/100
 1/72 [..............................] - ETA: 1:20 - loss: 0.6937 - categorical_accuracy: 0.5200
…
           0       0.92      0.46      0.62      1086
           1       0.60      0.95      0.74       914

    accuracy                           0.69      2000
   macro avg       0.76      0.71      0.68      2000
weighted avg       0.78      0.69      0.67      2000

Confusion Matrix for this model: 
 [[504 582]
 [ 42 872]]
Input Shape:  (24000, 1, 150)
Model: "sequential_7"
_________________________________________________________________
Layer (type)                 Output Shape              Param #   
=================================================================
lstm_7 (LSTM)                (None, 32)                23424     
_________________________________________________________________
dropout_7 (Dropout)          (None, 32)                0         
_________________________________________________________________
dense_28 (Dense)             (None, 128)               4224      
_________________________________________________________________
dense_29 (Dense)             (None, 128)               16512     
_________________________________________________________________
dense_30 (Dense)             (None, 64)                8256      
_________________________________________________________________
dense_31 (Dense)             (None, 5)                 325       
=================================================================
Total params: 52,741
Trainable params: 52,741
Non-trainable params: 0
_________________________________________________________________
Epoch 1/100
  1/216 [..............................] - ETA: 3:24 - loss: 1.6107 - categorical_accuracy: 0.2100
…
           4       0.64      0.73      0.69      1195

    accuracy                           0.60      6000
   macro avg       0.62      0.60      0.59      6000
weighted avg       0.62      0.60      0.59      6000

Confusion Matrix for this model: 
 [[851 259   0   0   1]
 [197 914 132  83   6]
 [  1 194 259 640  90]
 [  1  14  54 722 387]
 [ 21  13   8 276 877]]
Input Shape:  (17020, 1, 1000)
Model: "sequential_14"
_________________________________________________________________
Layer (type)                 Output Shape              Param #   
=================================================================
lstm_14 (LSTM)               (None, 32)                132224    
_________________________________________________________________
dropout_14 (Dropout)         (None, 32)                0         
_________________________________________________________________
dense_56 (Dense)             (None, 128)               4224      
_________________________________________________________________
dense_57 (Dense)             (None, 128)               16512     
_________________________________________________________________
dense_58 (Dense)             (None, 64)                8256      
_________________________________________________________________
dense_59 (Dense)             (None, 2)                 130       
=================================================================
Total params: 161,346
Trainable params: 161,346
Non-trainable params: 0
_________________________________________________________________
Epoch 1/100
  1/154 [..............................] - ETA: 2:40 - loss: 0.6956 - categorical_accuracy: 0.4300
…
           0       0.64      0.07      0.12       421
           1       0.46      0.95      0.62       347

    accuracy                           0.47       768
   macro avg       0.55      0.51      0.37       768
weighted avg       0.56      0.47      0.35       768

Confusion Matrix for this model: 
 [[ 29 392]
 [ 16 331]]
Input Shape:  (425, 1, 150)
Model: "sequential_28"
_________________________________________________________________
Layer (type)                 Output Shape              Param #   
=================================================================
lstm_28 (LSTM)               (None, 32)                23424     
_________________________________________________________________
dropout_28 (Dropout)         (None, 32)                0         
_________________________________________________________________
dense_112 (Dense)            (None, 128)               4224      
_________________________________________________________________
dense_113 (Dense)            (None, 128)               16512     
_________________________________________________________________
dense_114 (Dense)            (None, 64)                8256      
_________________________________________________________________
dense_115 (Dense)            (None, 7)                 455       
=================================================================
Total params: 52,871
Trainable params: 52,871
Non-trainable params: 0
_________________________________________________________________
Epoch 1/100
1/4 [======>.......................] - ETA: 3s - loss: 1.9491 - categorical_accuracy: 0.15004/4 [==============================] - 1s 104ms/step - loss: 1.9456 - categorical_accuracy: 0.1598 - val_loss: 1.9337 - val_categorical_accuracy: 0.2558
…
    accuracy                           0.71       203
   macro avg       0.69      0.71      0.70       203
weighted avg       0.70      0.71      0.70       203

Confusion Matrix for this model: 
 [[24  0  0  0  4  0]
 [ 0 35  0  0  0  0]
 [ 3  0  9 18  0  0]
 [ 5  0 11 24  3  0]
 [ 4  0  0  0 17  9]
 [ 0  0  0  0  1 36]]
Input Shape:  (7352, 3, 128)
Model: "sequential_35"
_________________________________________________________________
Layer (type)                 Output Shape              Param #   
=================================================================
lstm_35 (LSTM)               (None, 32)                20608     
_________________________________________________________________
dropout_35 (Dropout)         (None, 32)                0         
_________________________________________________________________
dense_140 (Dense)            (None, 128)               4224      
_________________________________________________________________
dense_141 (Dense)            (None, 128)               16512     
_________________________________________________________________
dense_142 (Dense)            (None, 64)                8256      
_________________________________________________________________
dense_143 (Dense)            (None, 6)                 390       
=================================================================
Total params: 49,990
Trainable params: 49,990
Non-trainable params: 0
_________________________________________________________________
Epoch 1/100
 1/67 [..............................] - ETA: 1:09 - loss: 1.8050 - categorical_accuracy: 0.1000
…
