Testing LSTM
2021-11-05
Input Shape:  (8000, 1, 150)
Model: "sequential"
_________________________________________________________________
Layer (type)                 Output Shape              Param #   
=================================================================
lstm (LSTM)                  (None, 32)                23424     
_________________________________________________________________
dropout (Dropout)            (None, 32)                0         
_________________________________________________________________
dense (Dense)                (None, 128)               4224      
_________________________________________________________________
dense_1 (Dense)              (None, 128)               16512     
_________________________________________________________________
dense_2 (Dense)              (None, 64)                8256      
_________________________________________________________________
dense_3 (Dense)              (None, 2)                 130       
=================================================================
Total params: 52,546
Trainable params: 52,546
Non-trainable params: 0
_________________________________________________________________
Epoch 00022: early stopping
Experiment:  1  Set:  ss1 Train Labels:  clean Test Labels:  clean
Shape of X_train:  (8000, 1, 150)
Shape of X_test:  (2000, 1, 150)
Shape of y_train:  (8000, 2)
…
           0       0.88      0.44      0.58      1180
           1       0.53      0.91      0.67       820

    accuracy                           0.63      2000
   macro avg       0.70      0.68      0.63      2000
weighted avg       0.74      0.63      0.62      2000

Confusion Matrix for this model: 
 [[517 663]
 [ 71 749]]
Input Shape:  (24000, 1, 150)
Model: "sequential_7"
_________________________________________________________________
Layer (type)                 Output Shape              Param #   
=================================================================
lstm_7 (LSTM)                (None, 32)                23424     
_________________________________________________________________
dropout_7 (Dropout)          (None, 32)                0         
_________________________________________________________________
dense_28 (Dense)             (None, 128)               4224      
_________________________________________________________________
dense_29 (Dense)             (None, 128)               16512     
_________________________________________________________________
dense_30 (Dense)             (None, 64)                8256      
_________________________________________________________________
dense_31 (Dense)             (None, 5)                 325       
=================================================================
Total params: 52,741
Trainable params: 52,741
Non-trainable params: 0
_________________________________________________________________
Epoch 00058: early stopping
Experiment:  50  Set:  ss2 Train Labels:  clean Test Labels:  clean
Shape of X_train:  (24000, 1, 150)
Shape of X_test:  (6000, 1, 150)
Shape of y_train:  (24000, 5)
…
    accuracy                           0.64      6000
   macro avg       0.64      0.61      0.62      6000
weighted avg       0.64      0.64      0.63      6000

Confusion Matrix for this model: 
 [[1002  198    6    1    0]
 [ 246  647  271   43    0]
 [   4  138  497  562    3]
 [   2   12  127 1407  211]
 [   1    1    3  319  299]]
Input Shape:  (17020, 1, 1000)
Model: "sequential_14"
_________________________________________________________________
Layer (type)                 Output Shape              Param #   
=================================================================
lstm_14 (LSTM)               (None, 32)                132224    
_________________________________________________________________
dropout_14 (Dropout)         (None, 32)                0         
_________________________________________________________________
dense_56 (Dense)             (None, 128)               4224      
_________________________________________________________________
dense_57 (Dense)             (None, 128)               16512     
_________________________________________________________________
dense_58 (Dense)             (None, 64)                8256      
_________________________________________________________________
dense_59 (Dense)             (None, 2)                 130       
=================================================================
Total params: 161,346
Trainable params: 161,346
Non-trainable params: 0
_________________________________________________________________
Epoch 00016: early stopping
Experiment:  99  Set:  bs1 Train Labels:  clean Test Labels:  clean
Shape of X_train:  (17020, 1, 1000)
Shape of X_test:  (17243, 1, 1000)
Shape of y_train:  (17020, 2)
…
           0       0.66      0.23      0.34       815
           1       0.47      0.85      0.61       657

    accuracy                           0.51      1472
   macro avg       0.56      0.54      0.47      1472
weighted avg       0.57      0.51      0.46      1472

Confusion Matrix for this model: 
 [[185 630]
 [ 96 561]]
Input Shape:  (2077, 1, 96)
Model: "sequential_28"
_________________________________________________________________
Layer (type)                 Output Shape              Param #   
=================================================================
lstm_28 (LSTM)               (None, 32)                16512     
_________________________________________________________________
dropout_28 (Dropout)         (None, 32)                0         
_________________________________________________________________
dense_112 (Dense)            (None, 128)               4224      
_________________________________________________________________
dense_113 (Dense)            (None, 128)               16512     
_________________________________________________________________
dense_114 (Dense)            (None, 64)                8256      
_________________________________________________________________
dense_115 (Dense)            (None, 7)                 455       
=================================================================
Total params: 45,959
Trainable params: 45,959
Non-trainable params: 0
_________________________________________________________________
