Testing LSTM
2021-11-03
Input Shape:  (8000, 1, 150)
Model: "sequential"
_________________________________________________________________
Layer (type)                 Output Shape              Param #   
=================================================================
lstm (LSTM)                  (None, 32)                23424     
_________________________________________________________________
dropout (Dropout)            (None, 32)                0         
_________________________________________________________________
dense (Dense)                (None, 128)               4224      
_________________________________________________________________
dense_1 (Dense)              (None, 128)               16512     
_________________________________________________________________
dense_2 (Dense)              (None, 64)                8256      
_________________________________________________________________
dense_3 (Dense)              (None, 2)                 130       
=================================================================
Total params: 52,546
Trainable params: 52,546
Non-trainable params: 0
_________________________________________________________________
Epoch 1/100
 1/72 [..............................] - ETA: 1:33 - loss: 0.6924 - categorical_accuracy: 0.5200
…
           0       0.72      0.56      0.63       819
           1       0.73      0.85      0.79      1181

    accuracy                           0.73      2000
   macro avg       0.73      0.70      0.71      2000
weighted avg       0.73      0.73      0.72      2000

Confusion Matrix for this model: 
 [[ 456  363]
 [ 175 1006]]
Input Shape:  (24000, 1, 150)
Model: "sequential_7"
_________________________________________________________________
Layer (type)                 Output Shape              Param #   
=================================================================
lstm_7 (LSTM)                (None, 32)                23424     
_________________________________________________________________
dropout_7 (Dropout)          (None, 32)                0         
_________________________________________________________________
dense_28 (Dense)             (None, 128)               4224      
_________________________________________________________________
dense_29 (Dense)             (None, 128)               16512     
_________________________________________________________________
dense_30 (Dense)             (None, 64)                8256      
_________________________________________________________________
dense_31 (Dense)             (None, 5)                 325       
=================================================================
Total params: 52,741
Trainable params: 52,741
Non-trainable params: 0
_________________________________________________________________
Epoch 1/100
  1/216 [..............................] - ETA: 4:11 - loss: 1.6109 - categorical_accuracy: 0.1900
…
           4       0.49      0.58      0.53       613

    accuracy                           0.56      6000
   macro avg       0.57      0.57      0.55      6000
weighted avg       0.60      0.56      0.56      6000

Confusion Matrix for this model: 
 [[907 347  56 258 210]
 [187 691 293  26   0]
 [  2 149 586 467   6]
 [  1  77 156 805 163]
 [  0  50   6 199 358]]
Input Shape:  (17020, 1, 1000)
Model: "sequential_14"
_________________________________________________________________
Layer (type)                 Output Shape              Param #   
=================================================================
lstm_14 (LSTM)               (None, 32)                132224    
_________________________________________________________________
dropout_14 (Dropout)         (None, 32)                0         
_________________________________________________________________
dense_56 (Dense)             (None, 128)               4224      
_________________________________________________________________
dense_57 (Dense)             (None, 128)               16512     
_________________________________________________________________
dense_58 (Dense)             (None, 64)                8256      
_________________________________________________________________
dense_59 (Dense)             (None, 2)                 130       
=================================================================
Total params: 161,346
Trainable params: 161,346
Non-trainable params: 0
_________________________________________________________________
Epoch 1/100
  1/154 [..............................] - ETA: 3:33 - loss: 0.6904 - categorical_accuracy: 0.6000
…
           0       0.61      0.25      0.36       815
           1       0.46      0.80      0.59       657

    accuracy                           0.50      1472
   macro avg       0.54      0.53      0.47      1472
weighted avg       0.54      0.50      0.46      1472

Confusion Matrix for this model: 
 [[205 610]
 [131 526]]
Input Shape:  (425, 1, 150)
Model: "sequential_28"
_________________________________________________________________
Layer (type)                 Output Shape              Param #   
=================================================================
lstm_28 (LSTM)               (None, 32)                23424     
_________________________________________________________________
dropout_28 (Dropout)         (None, 32)                0         
_________________________________________________________________
dense_112 (Dense)            (None, 128)               4224      
_________________________________________________________________
dense_113 (Dense)            (None, 128)               16512     
_________________________________________________________________
dense_114 (Dense)            (None, 64)                8256      
_________________________________________________________________
dense_115 (Dense)            (None, 7)                 455       
=================================================================
Total params: 52,871
Trainable params: 52,871
Non-trainable params: 0
_________________________________________________________________
Epoch 1/100
1/4 [======>.......................] - ETA: 4s - loss: 1.9451 - categorical_accuracy: 0.23004/4 [==============================] - 2s 145ms/step - loss: 1.9421 - categorical_accuracy: 0.1728 - val_loss: 1.9191 - val_categorical_accuracy: 0.2326
…
    accuracy                           0.57       203
   macro avg       0.55      0.52      0.47       203
weighted avg       0.61      0.57      0.52       203

Confusion Matrix for this model: 
 [[24  0  3  0  1  0  0]
 [ 0 35  0  0  0  0  0]
 [ 2  2  0  7 10  0  0]
 [ 2  0  0  7  8  0  0]
 [13  1  3  8 10  0  0]
 [ 5  0 11  1  0  3 10]
 [ 0  0  1  0  0  0 36]]
Input Shape:  (7352, 3, 128)
Model: "sequential_35"
_________________________________________________________________
Layer (type)                 Output Shape              Param #   
=================================================================
lstm_35 (LSTM)               (None, 32)                20608     
_________________________________________________________________
dropout_35 (Dropout)         (None, 32)                0         
_________________________________________________________________
dense_140 (Dense)            (None, 128)               4224      
_________________________________________________________________
dense_141 (Dense)            (None, 128)               16512     
_________________________________________________________________
dense_142 (Dense)            (None, 64)                8256      
_________________________________________________________________
dense_143 (Dense)            (None, 6)                 390       
=================================================================
Total params: 49,990
Trainable params: 49,990
Non-trainable params: 0
_________________________________________________________________
Epoch 1/100
 1/67 [..............................] - ETA: 1:31 - loss: 1.7809 - categorical_accuracy: 0.2400
…
