Testing LSTM
2021-11-09
Input Shape:  (8000, 1, 150)
Model: "sequential"
_________________________________________________________________
Layer (type)                 Output Shape              Param #   
=================================================================
lstm (LSTM)                  (None, 32)                23424     
_________________________________________________________________
dropout (Dropout)            (None, 32)                0         
_________________________________________________________________
dense (Dense)                (None, 128)               4224      
_________________________________________________________________
dense_1 (Dense)              (None, 128)               16512     
_________________________________________________________________
dense_2 (Dense)              (None, 64)                8256      
_________________________________________________________________
dense_3 (Dense)              (None, 2)                 130       
=================================================================
Total params: 52,546
Trainable params: 52,546
Non-trainable params: 0
_________________________________________________________________
Epoch 00025: early stopping
Experiment:  1  Set:  ss1 Train Labels:  clean Test Labels:  clean
Shape of X_train:  (8000, 1, 150)
Shape of X_test:  (2000, 1, 150)
Shape of y_train:  (8000, 2)
…
           0       0.70      0.62      0.66       811
           1       0.76      0.82      0.79      1189

    accuracy                           0.74      2000
   macro avg       0.73      0.72      0.73      2000
weighted avg       0.74      0.74      0.74      2000

Confusion Matrix for this model: 
 [[506 305]
 [213 976]]
Input Shape:  (24000, 1, 150)
Model: "sequential_7"
_________________________________________________________________
Layer (type)                 Output Shape              Param #   
=================================================================
lstm_7 (LSTM)                (None, 32)                23424     
_________________________________________________________________
dropout_7 (Dropout)          (None, 32)                0         
_________________________________________________________________
dense_28 (Dense)             (None, 128)               4224      
_________________________________________________________________
dense_29 (Dense)             (None, 128)               16512     
_________________________________________________________________
dense_30 (Dense)             (None, 64)                8256      
_________________________________________________________________
dense_31 (Dense)             (None, 5)                 325       
=================================================================
Total params: 52,741
Trainable params: 52,741
Non-trainable params: 0
_________________________________________________________________
Epoch 00039: early stopping
Experiment:  50  Set:  ss2 Train Labels:  clean Test Labels:  clean
Shape of X_train:  (24000, 1, 150)
Shape of X_test:  (6000, 1, 150)
Shape of y_train:  (24000, 5)
…
    accuracy                           0.56      6000
   macro avg       0.55      0.59      0.54      6000
weighted avg       0.59      0.56      0.54      6000

Confusion Matrix for this model: 
 [[1043  123   12    0    2]
 [ 460  394  413  271  241]
 [  38   91  669  298   95]
 [   2    1   95  295  263]
 [   4    4   36  179  971]]
Input Shape:  (17020, 1, 1000)
Model: "sequential_14"
_________________________________________________________________
Layer (type)                 Output Shape              Param #   
=================================================================
lstm_14 (LSTM)               (None, 32)                132224    
_________________________________________________________________
dropout_14 (Dropout)         (None, 32)                0         
_________________________________________________________________
dense_56 (Dense)             (None, 128)               4224      
_________________________________________________________________
dense_57 (Dense)             (None, 128)               16512     
_________________________________________________________________
dense_58 (Dense)             (None, 64)                8256      
_________________________________________________________________
dense_59 (Dense)             (None, 2)                 130       
=================================================================
Total params: 161,346
Trainable params: 161,346
Non-trainable params: 0
_________________________________________________________________
Epoch 00016: early stopping
Experiment:  99  Set:  bs1 Train Labels:  clean Test Labels:  clean
Shape of X_train:  (17020, 1, 1000)
Shape of X_test:  (17243, 1, 1000)
Shape of y_train:  (17020, 2)
…
           0       0.59      0.27      0.37       815
           1       0.46      0.77      0.58       657

    accuracy                           0.49      1472
   macro avg       0.52      0.52      0.47      1472
weighted avg       0.53      0.49      0.46      1472

Confusion Matrix for this model: 
 [[216 599]
 [150 507]]
Input Shape:  (2077, 1, 96)
Model: "sequential_28"
_________________________________________________________________
Layer (type)                 Output Shape              Param #   
=================================================================
lstm_28 (LSTM)               (None, 32)                16512     
_________________________________________________________________
dropout_28 (Dropout)         (None, 32)                0         
_________________________________________________________________
dense_112 (Dense)            (None, 128)               4224      
_________________________________________________________________
dense_113 (Dense)            (None, 128)               16512     
_________________________________________________________________
dense_114 (Dense)            (None, 64)                8256      
_________________________________________________________________
dense_115 (Dense)            (None, 6)                 390       
=================================================================
Total params: 45,894
Trainable params: 45,894
Non-trainable params: 0
_________________________________________________________________
Epoch 00026: early stopping
Experiment:  197  Set:  har1 Train Labels:  clean Test Labels:  clean
Shape of X_train:  (2077, 1, 96)
Shape of X_test:  (1091, 1, 96)
Shape of y_train:  (2077, 6)
…
    accuracy                           0.61      1091
   macro avg       0.62      0.58      0.56      1091
weighted avg       0.64      0.61      0.60      1091

Confusion Matrix for this model: 
 [[123   3   0   9   3  35]
 [  0 113  60   0   0   0]
 [ 61   0 141  38   6  35]
 [ 41   3  27 112   0   3]
 [ 62   0   0   2   7  17]
 [  9   0   5   3   0 173]]
Input Shape:  (7352, 3, 128)
Model: "sequential_35"
_________________________________________________________________
Layer (type)                 Output Shape              Param #   
=================================================================
lstm_35 (LSTM)               (None, 32)                20608     
_________________________________________________________________
dropout_35 (Dropout)         (None, 32)                0         
_________________________________________________________________
dense_140 (Dense)            (None, 128)               4224      
_________________________________________________________________
dense_141 (Dense)            (None, 128)               16512     
_________________________________________________________________
dense_142 (Dense)            (None, 64)                8256      
_________________________________________________________________
dense_143 (Dense)            (None, 6)                 390       
=================================================================
Total params: 49,990
Trainable params: 49,990
Non-trainable params: 0
_________________________________________________________________
Epoch 00070: early stopping
Experiment:  246  Set:  har2 Train Labels:  clean Test Labels:  clean
Shape of X_train:  (7352, 3, 128)
Shape of X_test:  (2947, 3, 128)
Shape of y_train:  (7352, 6)
…
